hybrid_vqc_model_best.pth (torch, 12453 bytes, 8 tensors)

pre_fc.weight f4 [64, 13]
0	0x3c9dcd6e	0.019262996
1	0x3edd5cc0	0.43234825
2	0xbcf4d58c	-0.029886983
3	0x3eca64d2	0.39530045
4	0x3e5b22de	0.2140002
5	0xbe9bcd96	-0.30430287
6	0xbe698787	-0.22805606
7	0x3c2ec456	0.010666927
8	0x3e0b940e	0.13630697
9	0xbe992861	-0.2991362
10	0x3e988220	0.29786777
11	0x3e112f4c	0.14178199
12	0x3e886c15	0.2664496
13	0x3ea606f8	0.32427192
14	0x3e6a068d	0.22854061
15	0x3e3ddf2d	0.18542166
16	0xbd00a6e1	-0.031409148
17	0x3df76fd0	0.120818734
18	0xbdab7697	-0.083722286
19	0x3de22c78	0.11043638
20	0xbdee0f4a	-0.1162401
21	0xbe5c33ff	-0.2150421
22	0xbe0159af	-0.12631868
23	0x3e85643b	0.26053032
24	0xbf7eb52e	-0.9949521
25	0xbd7dab12	-0.061930723
26	0xbe8c7ba6	-0.27438086
27	0xbdb588b7	-0.08863967
28	0xbd5891a9	-0.052873287
29	0x3d0e95e6	0.034810923
30	0x3d0a6f59	0.033797596
31	0xbdaa5a98	-0.08318061
32	0x3e87be04	0.26512158
33	0x3caca9cb	0.021077057
34	0xbe5825d9	-0.21108188
35	0x3d60cbf6	0.054882012
36	0x3dd981a7	0.10620432
37	0x3f2f296b	0.68422574
38	0x3d5ce8ff	0.05393314
39	0xbf04b204	-0.5183413
40	0x3ca85840	0.020549893
41	0xbe9d08bb	-0.30670723
42	0x3eb870bb	0.36023507
43	0x3e4d2d3a	0.20036784
44	0x3e2f6f58	0.17132318
45	0x3ea07dfd	0.3134612
46	0x3e70a733	0.23501281
47	0x3df180f3	0.11792173
48	0x3e5fd799	0.21859588
49	0x3cae49ad	0.021275366
50	0xbdce265d	-0.10065911
51	0xbe27fb7e	-0.1640453
52	0xbe926dd5	-0.2859942
53	0x3ef5806a	0.47949535
54	0x3ec67565	0.3876144
55	0x3e09f98a	0.13474098
56	0x3ebd361c	0.36955345
57	0xbe342026	-0.17590389
58	0x3e3ee0d7	0.18640457
59	0xbf239f0c	-0.6391456
60	0xbe55322c	-0.2081992
61	0x3dd2c2cf	0.10291063
62	0x3e0ae12b	0.13562457
63	0xbd39e949	-0.045388494
64	0xbdf9e5e5	-0.12202052
65	0x3d84062f	0.06446492
66	0x3e542e09	0.20720686
67	0x3dc0a73f	0.094069
68	0x3da77a1f	0.081775896
69	0xbd66795a	-0.056268074
70	0x3e69fba7	0.22849904
71	0x3cfc8e9c	0.03082972
72	0x3e3a178c	0.18173045
73	0xbdd82339	-0.10553593
74	0xbe8e8883	-0.27838525
75	0xbe73d7f9	-0.23812856
76	0x3e920dc4	0.28526127
77	0x3dd2503a	0.10269208
78	0x3d2233f6	0.039600335
79	0x3e5e2a0b	0.21695726
80	0xbef4c53b	-0.47806725
81	0xbccd9d0a	-0.025099296
82	0x3c738640	0.014863551
83	0x3d99c4f6	0.075082704
84	0x3d03d41f	0.032184716
85	0xbb6a7590	-0.003577564
86	0x3e6ca157	0.23108421
87	0xbe85e126	-0.26148337
88	0xbea177df	-0.31536767
89	0x3e7b27e5	0.24526937
90	0xbd077fb0	-0.033080757
91	0x3d245fd2	0.040130444
92	0x3e975d64	0.2956344
93	0xbdb38d12	-0.087671414
94	0xbef3e334	-0.4763428
95	0x3d895ad2	0.06706776
96	0x3ee39a71	0.44453767
97	0xbe76dad6	-0.24106917
98	0x3a2660b7	0.0006346809
99	0xbe4ed22e	-0.20197365
100	0xbdab53bf	-0.08365583
101	0x3e549394	0.20759422
102	0x3e165598	0.14681089
103	0xbea09f57	-0.31371567
104	0x3d838e71	0.06423653
105	0xbe5b6714	-0.2142604
106	0xbd953193	-0.07284846
107	0xbf022ce6	-0.5084976
108	0xbe396604	-0.18105322
109	0x3d264e1c	0.040601835
110	0xbe32d83d	-0.17465301
111	0x3e3c94b5	0.18416102
112	0xbd7b139b	-0.061297994
113	0xbe513dbb	-0.20433705
114	0xbe0097b2	-0.12557867
115	0xbf0299c7	-0.51015896
116	0xbd435486	-0.04768803
117	0xbd5e00a8	-0.054199845
118	0x3de6a3f6	0.11261742
119	0xbed76a28	-0.42073178
120	0xbea4c432	-0.32180935
121	0xbe125bc6	-0.14292821
122	0x3dc8d31e	0.098058924
123	0xbe8a1501	-0.2696915
124	0xbea4e549	-0.3220618
125	0xbef766b4	-0.48320544
126	0xbe69c947	-0.22830687
127	0x3bbf9da1	0.0058476483
128	0x3e559411	0.20857264
129	0xbcb2dfb7	-0.021835191
130	0x3e086ba2	0.13322309
131	0x3deae35f	0.11469149
132	0xbe4dc3bf	-0.20094202
133	0x3eb20e19	0.3477638
134	0xbd024035	-0.031799514
135	0xbe8ce1bf	-0.2751598
136	0xbe81bf43	-0.25341234
137	0xbf07386a	-0.52820456
138	0x3e8b4404	0.2720033
139	0xbe38e0d3	-0.18054514
140	0x3d1747e9	0.036933813
141	0xbe0fa830	-0.14029002
142	0x3f01614d	0.50539094
143	0xbe422b75	-0.1896189
144	0x3e014404	0.12623602
145	0xbe8df421	-0.27725318
146	0x3d4508bb	0.04810403
147	0x3e4d2670	0.20034194
148	0x3ec9f5de	0.39445394
149	0xbe1fb127	-0.15594922
150	0xbda76bf9	-0.08174891
151	0xbda334ee	-0.0796908
152	0x3d86eb19	0.0658781
153	0xbe22977e	-0.15878102
154	0x3e8baae5	0.2727882
155	0xbec45a90	-0.38350344
156	0x3e8dfc32	0.27731472
157	0xbdb37905	-0.08763317
158	0xbe05ddc8	-0.13072884
159	0xbd1c713d	-0.03819393
160	0x3de6d3f1	0.11270893
161	0x3ecddf7f	0.40209576
162	0x3da3d2ec	0.079992145
163	0xbe96bf48	-0.2944281
164	0x3eadc231	0.3393722
165	0x3d9cdb20	0.07658982
166	0xbea8b4ef	-0.3295054
167	0x3e27fc96	0.16404948
168	0xbe7669ec	-0.24063843
169	0xbeb1723d	-0.3465747
170	0x3db27b9e	0.08714984
171	0x3dd61620	0.10453439
172	0x3eb5ef90	0.35534334
173	0xbcbe4666	-0.023226928
174	0xbe740355	-0.23829396
175	0x3dad8b52	0.08473839
176	0xbdcfe7ac	-0.1015161
177	0x3e1058b5	0.14096339
178	0x3ee22ad8	0.44173312
179	0xbe85513d	-0.26038542
180	0xbdb9588d	-0.09050093
181	0x3e8b6a8b	0.27229723
182	0xbcff6d82	-0.031180147
183	0xbeb76cf7	-0.3582532
184	0x3f011f79	0.5043865
185	0xbc611edb	-0.013740267
186	0x3e003343	0.12519555
187	0xbe115a60	-0.14194632
188	0x3ec5ef41	0.386591
189	0x3dc85b66	0.09783058
190	0x3e4d2882	0.20034984
191	0xbe46471b	-0.19363062
192	0x3f0db081	0.5534745
193	0x3e3d652a	0.18495622
194	0xbd677b6b	-0.056514185
195	0xbe6d53ab	-0.23176448
196	0x3e12ceb0	0.14336658
197	0x3dd57a89	0.10423762
198	0x3edc0ba7	0.4297764
199	0x3e8b705c	0.2723416
200	0xbef13a24	-0.4711467
201	0x3dcb841d	0.09937308
202	0x3e75b752	0.23995712
203	0x3e29040f	0.16505454
204	0x3dd1f477	0.10251706
205	0xbe61f2d0	-0.22065282
206	0xbe4063ac	-0.18788022
207	0x3d196568	0.037450224
208	0xbdfb2771	-0.12263382
209	0x3d23748a	0.039906062
210	0x3ecee323	0.40407667
211	0xbe37f5fb	-0.17964928
212	0xbe90ad6f	-0.2825732
213	0x3e4fd5f0	0.20296454
214	0xbe24b4d6	-0.16084608
215	0x3e42010c	0.18945712
216	0x3e6ccc25	0.2312475
217	0xbde680b9	-0.11255021
218	0x3e74e83d	0.23916717
219	0xbee249d5	-0.44196954
220	0xbe6d7a0c	-0.23191088
221	0xbe145e1b	-0.14489023
222	0x3e243de8	0.1603924
223	0xbd961f1f	-0.07330155
224	0xbd0b10ad	-0.03395145
225	0x3ea75c71	0.32687715
226	0x3e001258	0.12506998
227	0xbe629ecc	-0.22130889
228	0xbebd8c16	-0.3702094
229	0xbe516524	-0.20448738
230	0xbeab4636	-0.33452004
231	0x3e2de361	0.1698127
232	0x3db85817	0.09001177
233	0x3f02bbcb	0.510678
234	0x3e665215	0.2249225
235	0x3eaaf71b	0.33391652
236	0x3e7c6099	0.24646224
237	0xbd0b55b9	-0.0340173
238	0x3e3eb157	0.18622337
239	0xbe748e63	-0.23882441
240	0x3e91733d	0.28408232
241	0xbe1aef33	-0.1513031
242	0x3c4289bb	0.011873658
243	0xbe37b31e	-0.17939422
244	0x3d153c83	0.03643466
245	0x3dadb33a	0.084814504
246	0x3cbf74b4	0.023371078
247	0x3dde174b	0.108442865
248	0x3ed407ee	0.414123
249	0x3e867173	0.2625843
250	0xbe327d79	-0.17430677
251	0x3b649a64	0.0034882063
252	0xbdcb5187	-0.099276595
253	0xbbaedf82	-0.005336703
254	0xbddabd30	-0.10680616
255	0xbebda09a	-0.37036592

pre_fc.bias f4 [64]
0	0xbec00e07	-0.37510702
1	0xbe892737	-0.2678773
2	0xbf2bc3f3	-0.6709587
3	0x3e3295f6	0.17440018
4	0xbf136386	-0.57573736
5	0xbf2bca50	-0.6710558
6	0xbdddb9bd	-0.108264424
7	0xbf0d1641	-0.5511208
8	0xbe483897	-0.19552837
9	0xbec1c8eb	-0.378486
10	0xbd8417a0	-0.064498186
11	0xbf19ad84	-0.6003039
12	0xbe70c452	-0.2351239
13	0xbe1be132	-0.15222624
14	0xbf043cef	-0.5165548
15	0x3d385111	0.044999186
16	0xbd1e14c1	-0.03859401
17	0x3e5fda4a	0.21860614
18	0xbea57b63	-0.323207
19	0xbe9e12b9	-0.3087366
20	0xbf05f6db	-0.52329797
21	0x3d09b09b	0.03361569
22	0xbea6f8ff	-0.32611844
23	0xbe635454	-0.22200137
24	0xbe306196	-0.17224726
25	0xbcd6a1d5	-0.026200214
26	0x3ebc42f8	0.36769843
27	0x3a9177fa	0.0011098378
28	0xbe8d957b	-0.27653107
29	0xbf23de6d	-0.6401127
30	0x3d9624d1	0.07331241
31	0xbdf84a3e	-0.121235356
32	0xbec45870	-0.38348722
33	0x3c415120	0.011799127
34	0xbc0d5784	-0.008626822
35	0xbd7add5a	-0.061246254
36	0xbe1bc083	-0.15210156
37	0xbef053ea	-0.4693902
38	0xbe5a25be	-0.2130346
39	0x3e463983	0.19357876
40	0xbe1a1970	-0.15048766
41	0xbdc3909f	-0.09549069
42	0xbf02e188	-0.51125383
43	0xbec771c5	-0.38953987
44	0x3d541e6c	0.051786825
45	0xbe8accf4	-0.27109492
46	0xbd163d02	-0.036679275
47	0xbeb814f2	-0.3595348
48	0xbe917e19	-0.28416517
49	0x3e64d946	0.22348508
50	0xbe6d61e7	-0.23181878
51	0xbe7fbfcb	-0.24975507
52	0xbd7ef515	-0.062245447
53	0x3d9ef987	0.07762437
54	0xbd2a761d	-0.041616548
55	0xbebb375e	-0.3656568
56	0xbeb84adc	-0.35994613
57	0xbe8a58be	-0.2702083
58	0xbe18fd98	-0.14940488
59	0xbed5ee43	-0.41783342
60	0xbdd84e5d	-0.105618216
61	0xbe606478	-0.21913326
62	0xbe10af56	-0.14129385
63	0xbe4447cf	-0.19168018

fc1.weight f4 [13, 64]
0	0xbd48d163	-0.04902781
1	0xbdb2d3f2	-0.087318316
2	0xbd5f5279	-0.05452201
3	0xbe0c35ab	-0.13692348
4	0x3d771130	0.060319126
5	0x3ccd358b	0.025049945
6	0x3d656d55	0.05601247
7	0xbcb7c968	-0.022434905
8	0xbc857c23	-0.016294545
9	0xbd240249	-0.04004124
10	0xbe1c19e2	-0.15244249
11	0xbd8b259f	-0.06794285
12	0xbd458890	-0.04822594
13	0xbdf5dcef	-0.1200503
14	0xbe003c2c	-0.12522954
15	0x3d96fca1	0.07372404
16	0x3ce86878	0.028370127
17	0x3c3abfe7	0.011398292
18	0x3d8fcd99	0.070216365
19	0xbd68ff9f	-0.056884404
20	0xbd5d42f0	-0.054018915
21	0xbce6d32c	-0.028176866
22	0xbd4a924b	-0.049455922
23	0xbda98dc0	-0.0827899
24	0xbddfc1ce	-0.10925637
25	0xbced6507	-0.028978838
26	0xbe20b07b	-0.15692322
27	0xbd9fb523	-0.07798221
28	0x3dacf92a	0.08445962
29	0xbd841b8c	-0.06450567
30	0xbdb8aa70	-0.090168834
31	0x3a076b6b	0.0005165848
32	0xbdeac7ae	-0.11463867
33	0xbda6963b	-0.08134123
34	0x3d0f5661	0.034994487
35	0xbdc9132c	-0.0981811
36	0xbdca42da	-0.09876032
37	0xbe21cc71	-0.15800644
38	0xbcf5bdad	-0.029997671
39	0xbde6058d	-0.112315275
40	0xbdc3417f	-0.09533977
41	0x3c3b43b1	0.011429713
42	0xbc6e9163	-0.01456103
43	0xbd9b9a02	-0.07597734
44	0xbe22488d	-0.15847988
45	0xbdacb5c9	-0.0843311
46	0xbdb3d8b0	-0.08781564
47	0xbd892873	-0.06697168
48	0xbe0c3358	-0.13691461
49	0xbcb54ab2	-0.022130344
50	0xbdd97fff	-0.106201164
51	0xbe058856	-0.1304029
52	0xbe0c5964	-0.13705975
53	0xbca93099	-0.020653056
54	0xbe21d13e	-0.15802476
55	0xbd6b291f	-0.057412263
56	0x3d1508ff	0.036385532
57	0xbc15f4b7	-0.009152583
58	0x3d28eb29	0.04123989
59	0xbe2e65d6	-0.17031035
60	0xbe074435	-0.13209613
61	0xbdc38683	-0.095471404
62	0x3cc483fb	0.023988714
63	0xbd4ac4cb	-0.049504083
64	0xbe0aced7	-0.13555466
65	0xbd7fd4cd	-0.062458802
66	0xbde15c95	-0.11003987
67	0xbdb9988f	-0.09062301
68	0xbd64d9ef	-0.0558719
69	0x3daa42e3	0.08313539
70	0xbcc7d7ff	-0.024394987
71	0xbd1c9b05	-0.038233776
72	0xbd619dea	-0.05508224
73	0xbda00948	-0.0781427
74	0x3d492a3c	0.049112543
75	0x3d18baf7	0.03728768
76	0x3caf64e5	0.021410415
77	0xbd7ca28d	-0.061678458
78	0x3d7b1ff5	0.061309773
79	0xbd94c3cf	-0.0726391
80	0xbdae6dac	-0.08517012
81	0x3d68a9e8	0.05680266
82	0x3d09dd10	0.033658087
83	0x3ddd6ffb	0.10812374
84	0xbcd6b5f0	-0.026209801
85	0xbdc59475	-0.096474566
86	0x3d4ef91b	0.050530534
87	0x3d335ddb	0.04379068
88	0xbe0b1d02	-0.13585284
89	0xbd2625d8	-0.040563434
90	0xbe025e9a	-0.127314
91	0xbca998a3	-0.020702666
92	0x3cbc557b	0.022989979
93	0xbcd38bc8	-0.025823489
94	0xbd937705	-0.072004355
95	0x3cf419a0	0.029797375
96	0xbd3c7242	-0.046007402
97	0xbe051b7a	-0.12998763
98	0x3d223257	0.03959879
99	0xbda7fce9	-0.08202536
100	0xbd73f54a	-0.059560098
101	0xbd52a910	-0.05143076
102	0xbd4b15b5	-0.04958125
103	0xbe0c24bb	-0.13685887
104	0xbba47b0c	-0.005019551
105	0xbd90b361	-0.07065464
106	0xbd9dad17	-0.0769903
107	0xbccdf4dc	-0.025141172
108	0xbd8598c0	-0.065232754
109	0xbde6ad60	-0.112635374
110	0xbd9f97c9	-0.077926226
111	0xbde1adb0	-0.110194564
112	0xbdd139db	-0.10216113
113	0xbd4f3db7	-0.050595965
114	0x3c45cc9d	0.012072709
115	0xbdcf28e8	-0.10115224
116	0xbe0347f2	-0.12820414
117	0xbcad67f5	-0.021167735
118	0xbbe09737	-0.0068539637
119	0x3ac607ee	0.0015108564
120	0xbdd271a6	-0.10275583
121	0x3ba0c862	0.0049067
122	0x3cf02a7a	0.02931713
123	0x3d5f4e26	0.054517888
124	0xbe224bee	-0.15849277
125	0xbd787375	-0.060656983
126	0xbe113c94	-0.14183265
127	0xbdc8211b	-0.09771939
128	0x3e0b5fff	0.13610838
129	0xbd9733ac	-0.073829025
130	0xbe90e51d	-0.282998
131	0xbec0eb9d	-0.3767976
132	0xbe181b82	-0.14854243
133	0x3d4f5f75	0.050628144
134	0x3e0b13ac	0.13581723
135	0xbd7705ee	-0.06030839
136	0xbece0ec5	-0.40245643
137	0xbe104fac	-0.14092892
138	0x3e351bc0	0.17686367
139	0xbde50ae0	-0.11183715
140	0x3dc7dda7	0.09759074
141	0xbe3767f6	-0.17910752
142	0xbe6e291b	-0.23257868
143	0xbf188e09	-0.5959173
144	0xbe194013	-0.14965849
145	0x3e8758bb	0.26434883
146	0x3e409f96	0.18810877
147	0xbe79a939	-0.2438096
148	0x3dfe70f1	0.124238856
149	0xbea1c951	-0.31598905
150	0x3e694bde	0.22782847
151	0xbbba1432	-0.005678677
152	0xbe48118f	-0.19537948
153	0xbe1d24d1	-0.15346076
154	0x3e1441e4	0.1447826
155	0x3dcb057b	0.09913155
156	0x3c858633	0.016299343
157	0x3da52484	0.080636054
158	0x3d9a136e	0.07523237
159	0xbf09d46a	-0.53839743
160	0xbedc4285	-0.430195
161	0x3d944c73	0.07241144
162	0x3e13add0	0.14421773
163	0xbe2e2807	-0.17007457
164	0xbf579394	-0.8420956
165	0xbeab7e7d	-0.3349494
166	0xbf23dd32	-0.6400939
167	0xbe3ccdee	-0.18437931
168	0xbd44d54d	-0.048054982
169	0x3e51642c	0.20448369
170	0x3ded21c2	0.115787044
171	0xbee59d2a	-0.4484647
172	0x3d82960e	0.06376277
173	0xbe012f6e	-0.12615749
174	0x3e7ec6e7	0.24880563
175	0x3d35d5db	0.0443934
176	0xbea1abd2	-0.315764
177	0xbd18d9a1	-0.037316922
178	0xbec8cff5	-0.3922116
179	0x3d73d706	0.059531234
180	0xbef313ba	-0.47475988
181	0xbecf3e07	-0.4047701
182	0xbe1c7f83	-0.15283017
183	0x3c88ef4d	0.01671567
184	0xbe8a15ed	-0.26969853
185	0xbe1f5669	-0.15560307
186	0xbe593af1	-0.2121389
187	0xbec02b57	-0.37533066
188	0xbe54e7d9	-0.20791568
189	0x3ea4936f	0.32143733
190	0xbe2755ef	-0.16341375
191	0x3c28e883	0.010309341
192	0x3d6dd992	0.05806882
193	0xbed4d889	-0.41571453
194	0xbea90476	-0.33011216
195	0x3d2719ac	0.040795967
196	0x3ed419c1	0.414259
197	0xbe4c33d6	-0.19941649
198	0x3df3cc1a	0.11904164
199	0x3e977669	0.29582527
200	0xbe0c77a6	-0.13717517
201	0x3e768873	0.24075489
202	0x3e38c26f	0.1804292
203	0x3e80bba7	0.25143167
204	0x3e0c3250	0.13691068
205	0x3e3a0b8c	0.18168467
206	0xbee78046	-0.45215052
207	0x3e00f071	0.12591721
208	0xbe0d2d12	-0.13786724
209	0x3de5857f	0.11207103
210	0x3d1aae15	0.037763674
211	0x3e4a494b	0.19754522
212	0xbf08d38d	-0.534478
213	0x3e78e33a	0.2430543
214	0x3e357e22	0.17723897
215	0x3e3e1a25	0.18564661
216	0xbd01b491	-0.031666342
217	0x3e019a07	0.12656413
218	0x3e11b3cd	0.14228745
219	0x3d47d713	0.048789095
220	0xbdfcf96d	-0.12352262
221	0x3e819cef	0.25315043
222	0x3cfa2288	0.030534044
223	0x3e374e95	0.1790107
224	0xbe55bb1c	-0.20872158
225	0x3e040473	0.12892322
226	0xbc6cc744	-0.0144518055
227	0xbe490863	-0.19632106
228	0x3cce8e8c	0.025214456
229	0xbe5e0730	-0.2168243
230	0x3de5f1f4	0.112277895
231	0x3d5469e5	0.0518588
232	0x3e60e3d3	0.21961908
233	0x3de960a9	0.113953896
234	0xbf0d01ec	-0.5508106
235	0x3cf47387	0.029840244
236	0xbca60a7f	-0.020268677
237	0xbe8b8013	-0.2724615
238	0x3e915715	0.2838675
239	0xbed0e8e1	-0.40802673
240	0x3df33053	0.118744515
241	0x3da26cfd	0.07930944
242	0xbdcb56cd	-0.09928665
243	0xbe1a6296	-0.1507667
244	0xbcbdd87b	-0.023174515
245	0x3d87e45b	0.06635352
246	0x3e0c3997	0.13693844
247	0xbe091274	-0.13385946
248	0xbd9c8620	-0.0764277
249	0xbe8315fc	-0.2560271
250	0xbccd621f	-0.025071202
251	0xbeb77fea	-0.35839778
252	0x3e047d7a	0.1293849
253	0x3d718281	0.05896235
254	0xbde995af	-0.11405503
255	0x3e635d73	0.22203617

fc1.bias f4 [13]
0	0xbd712ce7	-0.058880713
1	0xbe02a2be	-0.12757394
2	0x3d1c0054	0.03808625
3	0x3ed41f1f	0.41429994
4	0x3df4fbf7	0.11962121
5	0x3dc36164	0.0954006
6	0xbd901cb8	-0.07036728
7	0xbd765bc9	-0.060146127
8	0x3e25654e	0.16151926
9	0x3cc553a4	0.024087735
10	0x3e25a6d0	0.16176915
11	0xbd2228c7	-0.03958967
12	0xbc085b38	-0.0083225295

quantum.qlayer.weights f4 [78]
0	0x407c95ac	3.9466352
1	0x3fca4383	1.5801853
2	0x409b61e3	4.855699
3	0x40b44dc4	5.634493
4	0x40b3ef05	5.622927
5	0x4090f2a9	4.5296216
6	0x40c7e4a3	6.2466598
7	0x40249d56	2.572103
8	0x40553209	3.331179
9	0x40b60ead	5.6892915
10	0x40c3c0db	6.117292
11	0x3fcd74e1	1.6051294
12	0x40c97b68	6.2963142
13	0x40714bf1	3.77026
14	0x40476e18	3.1160946
15	0x40c16295	6.043284
16	0x3f9f3f19	1.2441131
17	0x40af8c23	5.4858565
18	0x40c706a8	6.2195625
19	0x3f7a09c9	0.9767118
20	0x3fcb9e1e	1.5907629
21	0x3e315d73	0.17320804
22	0x400b0af4	2.1725435
23	0x3eff343c	0.4984454
24	0x4034f7de	2.8276286
25	0x406630b5	3.5967228
26	0x40b29b48	5.581455
27	0x40972001	4.7226567
28	0x4096198a	4.6906176
29	0x40969e51	4.7068257
30	0x3fc8bae8	1.5682039
31	0x3e5dc47f	0.21656989
32	0x40491dec	3.1424513
33	0x40c93a9e	6.2884054
34	0x4059166b	3.3919933
35	0x401ae38a	2.420138
36	0x3f9e0bf0	1.2347393
37	0x400d33ca	2.206286
38	0x3f4456a5	0.7669471
39	0x40bf6af5	5.9818063
40	0x40147ae0	2.3199997
41	0x3f1a7f6c	0.6035068
42	0x406295c1	3.5403903
43	0x4065d228	3.590952
44	0x40424ce4	3.035943
45	0x40891488	4.2837563
46	0x40a19a69	5.050099
47	0xbccd48be	-0.0250591
48	0x3e1fd953	0.15610246
49	0x4030e158	2.763754
50	0x3f0274f6	0.5095972
51	0x3f115d51	0.56783015
52	0x40c86433	6.2622313
53	0x403c813b	2.9453876
54	0x3f8f305b	1.1186632
55	0x4008a0fa	2.1348252
56	0x3dd36a5d	0.103230216
57	0x40a7efef	5.248039
58	0x404d5f08	3.2089252
59	0x3fcaec88	1.5853434
60	0x3ec56cf5	0.3855969
61	0x4091b65f	4.553512
62	0x404386a6	3.0550933
63	0x3fedab15	1.8567835
64	0x401c0138	2.4375744
65	0x3fd38569	1.6525089
66	0x406e05fa	3.7191148
67	0x40b5f4d5	5.6861367
68	0x3fcd3879	1.6032859
69	0x4053edab	3.311381
70	0x3f2889aa	0.6583506
71	0x3fe2a8da	1.770778
72	0x40bbc4a9	5.8677564
73	0x404b0666	3.1722655
74	0x40c500e8	6.1563606
75	0x402ba5b0	2.6819878
76	0x3fb8d427	1.4439744
77	0x3fa64f83	1.2993015

fc2.weight f4 [32, 13]
0	0x3e7dcb19	0.24784507
1	0xbe86eb1b	-0.26351246
2	0x3ed95f91	0.42455724
3	0x3e984afc	0.2974471
4	0x3e9835cf	0.29728553
5	0x3d8f6dce	0.070033655
6	0x3ccfa21b	0.025345853
7	0x3e7c464e	0.24636194
8	0xbe85262c	-0.26005685
9	0xbcda0725	-0.026614735
10	0xbf44994e	-0.76796424
11	0x3f8abceb	1.0838903
12	0x3e85236c	0.26003587
13	0x3d81b569	0.06333429
14	0x3cc5f780	0.024165869
15	0x3eb61508	0.3556292
16	0x3d89c5c8	0.06727177
17	0xbc5334bc	-0.012890991
18	0x3e2da045	0.16955669
19	0x3d04c911	0.032418314
20	0x3f2c65f3	0.6734306
21	0xbf9485f5	-1.160338
22	0x3f55028d	0.8320702
23	0x3f1a766e	0.6033696
24	0xbf231eb8	-0.6371875
25	0xbed85f4a	-0.422602
26	0x3b0ad34c	0.0021183072
27	0x3e51e553	0.20497636
28	0x3e45afde	0.1930537
29	0x3e7aba6a	0.24485174
30	0xbe46be66	-0.19408569
31	0x3e7e1202	0.24811557
32	0xbeaba921	-0.33527473
33	0x3f936b63	1.1517147
34	0xbf931b36	-1.1492679
35	0x3f333b7a	0.7001263
36	0x3f31f217	0.69510025
37	0xbf2f3f07	-0.6845555
38	0xbebc37f9	-0.36761454
39	0xbe9cb343	-0.30605516
40	0x3da6279f	0.08113026
41	0x3ef58b68	0.4795792
42	0x3e858586	0.26078433
43	0x3f1aac0b	0.60418767
44	0x3d86c7ed	0.065811016
45	0xbdc4d227	-0.09610396
46	0x3e5d9559	0.21639003
47	0x3e303478	0.17207515
48	0x3e134456	0.14381537
49	0xbf4f3864	-0.8094542
50	0x3fa9b6a6	1.3258865
51	0x3f7aaf0a	0.9792334
52	0x3e606748	0.21914399
53	0x3dec4eac	0.11538443
54	0x3d391b18	0.045191854
55	0xbe79a515	-0.2437938
56	0x3d5430a8	0.051804215
57	0xbe4a0e2c	-0.19731969
58	0x3daedf3c	0.08538672
59	0x3d486ef8	0.048933953
60	0x3bcc2c40	0.006230861
61	0xbe422ecd	-0.18963166
62	0xbe2c29f9	-0.16812886
63	0x3e51eb7e	0.2049999
64	0x3e0a510c	0.1350748
65	0x3e52b7c6	0.20577917
66	0xbcf11824	-0.029430456
67	0xbe2ab8b2	-0.16672018
68	0xbe873ae1	-0.2641211
69	0xbdfe14df	-0.124063246
70	0x3d6c7a01	0.05773354
71	0x3cbf5e2b	0.023360332
72	0x3f905027	1.127446
73	0xbf8fe216	-1.1240871
74	0x3f2d2b6a	0.6764437
75	0x3e428aa3	0.18998198
76	0xbeedd593	-0.46452007
77	0xbd783382	-0.060595997
78	0xbd8d2ada	-0.06892939
79	0x3ea09e29	0.31370667
80	0xbe8e0697	-0.27739403
81	0xbdb4d85f	-0.08830332
82	0xbf1288f6	-0.57240236
83	0xbc18f9ea	-0.009336928
84	0xbd831deb	-0.06402191
85	0x3fa51fa9	1.2900287
86	0xbf7b8106	-0.9824375
87	0x3f208126	0.62697065
88	0x3e2d7c64	0.16941983
89	0xbeb347e0	-0.35015774
90	0x3dbc0f43	0.091825984
91	0xbe7ad7ae	-0.24496338
92	0xbd1707b0	-0.036872566
93	0x3ebfeb6f	0.3748431
94	0xbe646337	-0.22303472
95	0xbea043c5	-0.31301704
96	0x3e2bac1f	0.16764878
97	0xbe029b0c	-0.12754458
98	0x3f58cb23	0.8468496
99	0xbf3306d6	-0.69932306
100	0x3eb2fa82	0.34956747
101	0x3e5f8c0e	0.2183077
102	0xbf23dbe6	-0.64007413
103	0xbe6e3612	-0.23262814
104	0xbdccebd5	-0.10005919
105	0x3e813d18	0.25241923
106	0x3ca6c906	0.020359527
107	0x3e10cdc3	0.14140992
108	0xbdc9b985	-0.09849838
109	0x3e2dbf0d	0.16967411
110	0x3e63d708	0.22249997
111	0xbe591f80	-0.21203423
112	0xbc026cdb	-0.0079605235
113	0xbe5799da	-0.21054783
114	0xbc8e71fd	-0.017388338
115	0xbdf3362e	-0.11875568
116	0xbd9bd14f	-0.07608282
117	0x3e7273fd	0.23677059
118	0xbe9fde8c	-0.31224477
119	0x3e2fd661	0.17171623
120	0x3da0bb00	0.078481674
121	0x3e9d2706	0.30693835
122	0xbe3aac5d	-0.18229814
123	0x3e8c7e19	0.27439955
124	0x3d0e48ae	0.03473728
125	0x3e0feff9	0.14056386
126	0x3f067753	0.52525824
127	0xbf7274a6	-0.9470924
128	0x3eed288a	0.4631999
129	0x3f14aeba	0.5807911
130	0xbe8113f1	-0.25210527
131	0xbea21820	-0.3165903
132	0xbdad425f	-0.08459925
133	0xbd51b53a	-0.05119822
134	0x3d99a4d0	0.075021386
135	0xbe57dcb8	-0.21080291
136	0x3de7e983	0.11323836
137	0xbee447a6	-0.44585913
138	0x3e7e4627	0.24831448
139	0x3e929007	0.2862551
140	0xbf03d327	-0.5149407
141	0x3f218085	0.6308673
142	0x3e613d1b	0.21995966
143	0x3c17a262	0.009255024
144	0x3d7054c4	0.05867459
145	0xbe3ec173	-0.18628483
146	0xbeb456e6	-0.35222548
147	0xbed90f76	-0.42394608
148	0x3ee5b500	0.44864655
149	0xbe54dc4e	-0.20787165
150	0x3f7ad8b1	0.97986895
151	0xbf2625b4	-0.6490128
152	0x3f21d1f1	0.6321097
153	0x3d837cea	0.0642031
154	0xbee93e5d	-0.45555392
155	0xbe8063ca	-0.25076133
156	0xbbc70d7f	-0.006074607
157	0xbec00162	-0.37501055
158	0x3c5d469c	0.013505604
159	0x3e403f34	0.1877411
160	0x3eb4ba3d	0.3529834
161	0xbd3206e6	-0.04346361
162	0x3e01f663	0.12691645
163	0x3e0bf625	0.13668115
164	0x3e9ceab1	0.30647805
165	0x3ee8949f	0.4542589
166	0xbf78eb72	-0.9723426
167	0x3f2f14ab	0.6839091
168	0x3eabc9d5	0.33552423
169	0xbe0cf708	-0.1376611
170	0xbda2e9d1	-0.07954753
171	0xbd4e2812	-0.050331183
172	0x3da6b84d	0.08140621
173	0x3e2dbfd8	0.16967714
174	0xbdf26869	-0.11836321
175	0xbe0eb4af	-0.13936113
176	0xbe65b20f	-0.22431205
177	0x3dcd4571	0.100230105
178	0x3eb3f8c6	0.35150737
179	0xbf6b50d8	-0.9192023
180	0x3f4161c0	0.7553978
181	0x3e59f82d	0.21286078
182	0xbe9d36f8	-0.30706
183	0xbdae9457	-0.08524387
184	0xbe56eb99	-0.20988311
185	0xbcd9b820	-0.026577055
186	0xbddde76f	-0.10835158
187	0xbd84ab16	-0.064779446
188	0x3e1d547d	0.15364261
189	0xbf0123b4	-0.50445104
190	0x3eb00591	0.34379247
191	0x3c00e825	0.007867848
192	0xbee0eb2b	-0.4392942
193	0x3e6d3746	0.23165616
194	0xbd448f97	-0.0479885
195	0xbb38116d	-0.0028086558
196	0xbe53b939	-0.20676126
197	0x3e3e8b7a	0.18607894
198	0xbdbd5b79	-0.09245963
199	0xbd8c39a5	-0.06846932
200	0xbc26cf60	-0.010181278
201	0x3daafea1	0.08349348
202	0xbd0d5302	-0.03450299
203	0x3ea2f1d0	0.31825113
204	0xbe1e1dd6	-0.15441069
205	0xbccd92fb	-0.0250945
206	0x3e343df7	0.17601763
207	0xbe6f77d0	-0.23385549
208	0xbdbdd17f	-0.09268474
209	0x3d2d07f9	0.04224393
210	0x3ed218af	0.41034457
211	0x3f05bd6b	0.52242154
212	0x3efcc5ad	0.49369565
213	0xbea93110	-0.33045244
214	0x3db3114b	0.08743533
215	0xbdb58c02	-0.08864595
216	0xbc48efca	-0.012264201
217	0xbe82b20a	-0.25526458
218	0xbf9ce380	-1.2256927
219	0x3f8dd627	1.1080979
220	0x3f1117c4	0.5667689
221	0x3dd89482	0.105752006
222	0xbe22fbe3	-0.159164
223	0xbe5188b7	-0.20462309
224	0xbe81d278	-0.25355887
225	0xbe70a62b	-0.23500888
226	0x3e2da7f3	0.16958599
227	0xbdef6b41	-0.11690379
228	0x3fa3ecbb	1.280662
229	0xbf6099e0	-0.87734795
230	0x3f3dcf8c	0.74144816
231	0x3e375691	0.17904116
232	0xbe1b2875	-0.15152152
233	0xbd88b141	-0.066744335
234	0xbec7572b	-0.3893369
235	0xbea85f91	-0.3288541
236	0xbe217f46	-0.15771207
237	0x3da8ce1e	0.08242439
238	0x3e5128c5	0.20425709
239	0xbe68a738	-0.22720039
240	0xbe4c9cab	-0.19981639
241	0xbe53b7a2	-0.20675519
242	0x3e69e980	0.2284298
243	0x3ea028e8	0.3128121
244	0xbf4710f5	-0.7776025
245	0x3f6f8aae	0.93570983
246	0x3ea2212d	0.31665936
247	0x3e2ed381	0.1707287
248	0xbe8cf8a0	-0.27533436
249	0x3e6fca04	0.23416907
250	0x3d2dc2a9	0.04242197
251	0xbe397a93	-0.18113165
252	0x3e9cf720	0.3065729
253	0xbef4b7d5	-0.47796503
254	0x3f9a297d	1.2043911
255	0xbf8e1b5f	-1.1102103

fc2.bias f4 [32]
0	0xbe3903cf	-0.18067859
1	0x3e2828a1	0.16421749
2	0x3e846016	0.25854558
3	0xbe0813cb	-0.132888
4	0xbe85b0e2	-0.26111513
5	0xbd34d136	-0.04414483
6	0xbd579ee6	-0.05264177
7	0x3dd122a9	0.10211689
8	0xbe20e72c	-0.15713185
9	0x3e217a5b	0.15769331
10	0xbe21fd7a	-0.1581935
11	0xbe5e9084	-0.21734816
12	0xbcef4d57	-0.029211683
13	0x3e5e9ca8	0.21739447
14	0x3dbf1f1f	0.09332108
15	0xbea5a397	-0.32351372
16	0xbe1963a3	-0.14979415
17	0xbe4539a4	-0.1926027
18	0xbde415b1	-0.1113695
19	0x3d82e1f2	0.06390752
20	0x3e05e4ad	0.13075514
21	0xbe243e02	-0.16039279
22	0xbdc89bb9	-0.09795327
23	0xbd212bfd	-0.03934859
24	0xbc6e74ed	-0.0145542445
25	0xbe61cf56	-0.22051749
26	0xbd8f6116	-0.070009395
27	0x3ebaacbf	0.3645992
28	0xbd17e43d	-0.0370829
29	0x3da52999	0.08064575
30	0x3d374be9	0.044750128
31	0x3d249197	0.040177908

fc3.weight f4 [1, 32]
0	0xbf0a9ab5	-0.54142314
1	0x3e9785b7	0.29594204
2	0x3f0f6838	0.560184
3	0xbee46fbd	-0.446165
4	0x3de60746	0.11231856
5	0x3f08a5d0	0.5337801
6	0x3f027ff8	0.50976515
7	0x3e83982d	0.25702038
8	0x3d94fbf4	0.07274619
9	0xbeaad18d	-0.33363
10	0xbeaebb42	-0.3412724
11	0x3e9e0e29	0.30870178
12	0xbed10420	-0.4082346
13	0xbec1a4a2	-0.37820917
14	0xbe3d6db7	-0.18498884
15	0xbd23bd0f	-0.039975222
16	0xbec08b73	-0.3760639
17	0x3e98e122	0.29859263
18	0xbeb28914	-0.34870207
19	0x3ef1a197	0.47193596
20	0xbe8f0a93	-0.27937755
21	0xbdd67d82	-0.104731575
22	0x3f382a0a	0.71939147
23	0x3df50d2d	0.11965404
24	0xbea1a0fb	-0.3156813
25	0xbde3396b	-0.11094936
26	0xbc941a1f	-0.018078862
27	0x3e851907	0.25995657
28	0x3ec99a0e	0.39375347
29	0xbed2ef26	-0.4119808
30	0xbe980fe9	-0.29699638
31	0xbea50247	-0.322283
